…
dopo strato di emb, e GlobalAveragPooling ho una struttura romboidale : 7 14 28
stesso strto di output

70 epoche, stesso batch_size(50)

70/70: loss: 1.9457 - accuracy: 0.1304 - val_loss: 1.9462 - val_accuracy: 0.1429

il modello non riesce ad aumentare il valore delle sue predizioni in termini di accuratezza.

provo a eliminare lo strato di GlobalAveragPooling. lo sostituisco con LSTM bidirezionali e unidirezionali
struttura modello delta_4
 Layer (type)                Output Shape              Param #   
=================================================================
 embedding_4 (Embedding)     (None, 185, 100)          460500    
                                                                 
 bidirectional (Bidirectiona  (None, 185, 20)          8880      
 l)                                                              
                                                                 
 lstm_1 (LSTM)               (None, 185, 10)           1240      
                                                                 
 bidirectional_1 (Bidirectio  (None, 185, 20)          1680      
 nal)                                                            
                                                                 
 lstm_3 (LSTM)               (None, 10)                1240      
                                                                 
 dense_11 (Dense)            (None, 16)                176       
                                                                 
 dense_12 (Dense)            (None, 7)                 119       
                                                              

stesso batch_size, 70 epoche
70/70:loss: 1.9457 - accuracy: 0.1449 - val_loss: 1.9461 - val_accuracy: 0.1429
non riesce comunque ad ottenere tramite il resto della rete una predizione corretta degli esercizi
